…
      "Training: 0.813953488372093\n",
      "Val: 0.7352941176470589\n"
     ]
    }
   ],
   "source": [
    "get_accuracy(model_nn1)"
   ]
  },
  {
   "cell_type": "code",
   "execution_count": 215,
   "id": "dcee09a5",
   "metadata": {},
   "outputs": [
    {
     "name": "stdout",
     "output_type": "stream",
     "text": [
      "Model: \"sequential_57\"\n",
      "_________________________________________________________________\n",
      " Layer (type)                Output Shape              Param #   \n",
      "=================================================================\n",
      " dense_138 (Dense)           (None, 200, 150, 125)     500       \n",
      "                                                                 \n",
      " dropout_33 (Dropout)        (None, 200, 150, 125)     0         \n",
      "                                                                 \n",
      " dense_139 (Dense)           (None, 200, 150, 25)      3150      \n",
      "                                                                 \n",
      " dropout_34 (Dropout)        (None, 200, 150, 25)      0         \n",
      "                                                                 \n",
      " flatten_59 (Flatten)        (None, 750000)            0         \n",
      "                                                                 \n",
      " dense_140 (Dense)           (None, 5)                 3750005   \n",
      "                                                                 \n",
      "=================================================================\n",
      "Total params: 3,753,655\n",
      "Trainable params: 3,753,655\n",
      "Non-trainable params: 0\n",
      "_________________________________________________________________\n"
     ]
    },
    {
     "name": "stderr",
     "output_type": "stream",
…
      "Training: 0.7982312479528333\n",
      "Val: 0.6176470588235294\n"
     ]
    }
   ],
   "source": [
    "get_accuracy(model_nn2)"
   ]
  },
  {
   "cell_type": "code",
   "execution_count": 193,
   "id": "90154636",
   "metadata": {},
   "outputs": [
    {
     "name": "stdout",
     "output_type": "stream",
     "text": [
      "Model: \"sequential_50\"\n",
      "_________________________________________________________________\n",
      " Layer (type)                Output Shape              Param #   \n",
      "=================================================================\n",
      " dense_116 (Dense)           (None, 200, 150, 100)     400       \n",
      "                                                                 \n",
      " dropout_23 (Dropout)        (None, 200, 150, 100)     0         \n",
      "                                                                 \n",
      " dense_117 (Dense)           (None, 200, 150, 50)      5050      \n",
      "                                                                 \n",
      " dropout_24 (Dropout)        (None, 200, 150, 50)      0         \n",
      "                                                                 \n",
      " dense_118 (Dense)           (None, 200, 150, 25)      1275      \n",
      "                                                                 \n",
      " flatten_52 (Flatten)        (None, 750000)            0         \n",
      "                                                                 \n",
      " dense_119 (Dense)           (None, 5)                 3750005   \n",
      "                                                                 \n",
      "=================================================================\n",
      "Total params: 3,756,730\n",
      "Trainable params: 3,756,730\n",
      "Non-trainable params: 0\n",
      "_________________________________________________________________\n"
     ]
    },
    {
     "name": "stderr",
     "output_type": "stream",
…
      "Training: 0.8414674091057975\n",
      "Val: 0.7205882352941176\n"
     ]
    }
   ],
   "source": [
    "get_accuracy(model_nn3)"
   ]
  },
  {
   "cell_type": "code",
   "execution_count": 217,
   "id": "bdc531af",
   "metadata": {},
   "outputs": [
    {
     "name": "stdout",
     "output_type": "stream",
     "text": [
      "Model: \"sequential_58\"\n",
      "_________________________________________________________________\n",
      " Layer (type)                Output Shape              Param #   \n",
      "=================================================================\n",
      " dense_141 (Dense)           (None, 200, 150, 100)     400       \n",
      "                                                                 \n",
      " dropout_35 (Dropout)        (None, 200, 150, 100)     0         \n",
      "                                                                 \n",
      " dense_142 (Dense)           (None, 200, 150, 50)      5050      \n",
      "                                                                 \n",
      " dropout_36 (Dropout)        (None, 200, 150, 50)      0         \n",
      "                                                                 \n",
      " dense_143 (Dense)           (None, 200, 150, 25)      1275      \n",
      "                                                                 \n",
      " dropout_37 (Dropout)        (None, 200, 150, 25)      0         \n",
      "                                                                 \n",
      " flatten_60 (Flatten)        (None, 750000)            0         \n",
      "                                                                 \n",
      " dense_144 (Dense)           (None, 5)                 3750005   \n",
      "                                                                 \n",
      "=================================================================\n",
      "Total params: 3,756,730\n",
      "Trainable params: 3,756,730\n",
      "Non-trainable params: 0\n",
      "_________________________________________________________________\n"
     ]
    }
   ],
   "source": [
    "## model 4\n",
…
    "from keras.layers import Dense,Conv2D, MaxPooling2D, Flatten, InputLayer,Activation ,Dropout,BatchNormalization, GlobalAveragePooling2D"
   ]
  },
  {
   "cell_type": "code",
   "execution_count": 219,
   "id": "6b060805",
   "metadata": {
    "collapsed": true
   },
   "outputs": [
    {
     "name": "stdout",
     "output_type": "stream",
     "text": [
      "Model: \"sequential_59\"\n",
      "_________________________________________________________________\n",
      " Layer (type)                Output Shape              Param #   \n",
      "=================================================================\n",
      " conv2d_4 (Conv2D)           (None, 200, 150, 5)       140       \n",
      "                                                                 \n",
      " max_pooling2d (MaxPooling2D  (None, 100, 75, 5)       0         \n",
      " )                                                               \n",
      "                                                                 \n",
      " conv2d_5 (Conv2D)           (None, 100, 75, 10)       460       \n",
      "                                                                 \n",
      " max_pooling2d_1 (MaxPooling  (None, 50, 37, 10)       0         \n",
      " 2D)                                                             \n",
      "                                                                 \n",
      " conv2d_6 (Conv2D)           (None, 50, 37, 15)        1365      \n",
      "                                                                 \n",
      " global_average_pooling2d (G  (None, 15)               0         \n",
      " lobalAveragePooling2D)                                          \n",
      "                                                                 \n",
      " flatten_61 (Flatten)        (None, 15)                0         \n",
      "                                                                 \n",
      " dense_145 (Dense)           (None, 125)               2000      \n",
      "                                                                 \n",
      " dropout_38 (Dropout)        (None, 125)               0         \n",
      "                                                                 \n",
      " dense_146 (Dense)           (None, 25)                3150      \n",
      "                                                                 \n",
      " dropout_39 (Dropout)        (None, 25)                0         \n",
      "                                                                 \n",
      " dense_147 (Dense)           (None, 5)                 130       \n",
      "                                                                 \n",
      "=================================================================\n",
      "Total params: 7,245\n",
      "Trainable params: 7,245\n",
      "Non-trainable params: 0\n",
      "_________________________________________________________________\n"
     ]
    }
   ],
   "source": [
    "## try 1\n",
    "\n",
…
      "Val: 0.19411764705882353\n"
     ]
    }
   ],
   "source": [
    "get_accuracy(model_cnn1)"
   ]
  },
  {
   "cell_type": "code",
   "execution_count": 224,
   "id": "162ec93e",
   "metadata": {
    "collapsed": true
   },
   "outputs": [
    {
     "name": "stdout",
     "output_type": "stream",
     "text": [
      "Model: \"sequential_60\"\n",
      "_________________________________________________________________\n",
      " Layer (type)                Output Shape              Param #   \n",
      "=================================================================\n",
      " conv2d_7 (Conv2D)           (None, 200, 150, 5)       140       \n",
      "                                                                 \n",
      " max_pooling2d_2 (MaxPooling  (None, 100, 75, 5)       0         \n",
      " 2D)                                                             \n",
      "                                                                 \n",
      " conv2d_8 (Conv2D)           (None, 100, 75, 10)       460       \n",
      "                                                                 \n",
      " max_pooling2d_3 (MaxPooling  (None, 50, 37, 10)       0         \n",
      " 2D)                                                             \n",
      "                                                                 \n",
      " conv2d_9 (Conv2D)           (None, 50, 37, 15)        1365      \n",
      "                                                                 \n",
      " global_average_pooling2d_1   (None, 15)               0         \n",
      " (GlobalAveragePooling2D)                                        \n",
      "                                                                 \n",
      " flatten_62 (Flatten)        (None, 15)                0         \n",
      "                                                                 \n",
      " dense_148 (Dense)           (None, 250)               4000      \n",
      "                                                                 \n",
      " dropout_40 (Dropout)        (None, 250)               0         \n",
      "                                                                 \n",
      " dense_149 (Dense)           (None, 125)               31375     \n",
      "                                                                 \n",
      " dropout_41 (Dropout)        (None, 125)               0         \n",
      "                                                                 \n",
      " dense_150 (Dense)           (None, 25)                3150      \n",
      "                                                                 \n",
      " dropout_42 (Dropout)        (None, 25)                0         \n",
      "                                                                 \n",
      " dense_151 (Dense)           (None, 5)                 130       \n",
      "                                                                 \n",
      "=================================================================\n",
      "Total params: 40,620\n",
      "Trainable params: 40,620\n",
      "Non-trainable params: 0\n",
      "_________________________________________________________________\n"
     ]
    },
    {
     "name": "stderr",
     "output_type": "stream",
…
      "Val: 0.35\n"
     ]
    }
   ],
   "source": [
    "get_accuracy(model_cnn2)"
   ]
  },
  {
   "cell_type": "code",
   "execution_count": 49,
   "id": "ff7e75ab",
   "metadata": {
    "collapsed": true
   },
   "outputs": [
    {
     "name": "stdout",
     "output_type": "stream",
     "text": [
      "Model: \"sequential_11\"\n",
      "_________________________________________________________________\n",
      " Layer (type)                Output Shape              Param #   \n",
      "=================================================================\n",
      " conv2d_30 (Conv2D)          (None, 200, 150, 10)      280       \n",
      "                                                                 \n",
      " max_pooling2d_21 (MaxPoolin  (None, 100, 75, 10)      0         \n",
      " g2D)                                                            \n",
      "                                                                 \n",
      " conv2d_31 (Conv2D)          (None, 100, 75, 10)       910       \n",
      "                                                                 \n",
      " max_pooling2d_22 (MaxPoolin  (None, 50, 37, 10)       0         \n",
      " g2D)                                                            \n",
      "                                                                 \n",
      " conv2d_32 (Conv2D)          (None, 50, 37, 10)        910       \n",
      "                                                                 \n",
      " max_pooling2d_23 (MaxPoolin  (None, 25, 18, 10)       0         \n",
      " g2D)                                                            \n",
      "                                                                 \n",
      " global_average_pooling2d_11  (None, 10)               0         \n",
      "  (GlobalAveragePooling2D)                                       \n",
      "                                                                 \n",
      " flatten_11 (Flatten)        (None, 10)                0         \n",
      "                                                                 \n",
      " dense_37 (Dense)            (None, 125)               1375      \n",
      "                                                                 \n",
      " dropout_26 (Dropout)        (None, 125)               0         \n",
      "                                                                 \n",
      " dense_38 (Dense)            (None, 25)                3150      \n",
      "                                                                 \n",
      " dropout_27 (Dropout)        (None, 25)                0         \n",
      "                                                                 \n",
      " dense_39 (Dense)            (None, 5)                 130       \n",
      "                                                                 \n",
      "=================================================================\n",
      "Total params: 6,755\n",
      "Trainable params: 6,755\n",
      "Non-trainable params: 0\n",
      "_________________________________________________________________\n"
     ]
    },
    {
     "name": "stderr",
     "output_type": "stream",
…
      "Val: 0.4117647058823529\n"
     ]
    }
   ],
   "source": [
    "get_accuracy(model_cnn3)"
   ]
  },
  {
   "cell_type": "code",
   "execution_count": 40,
   "id": "c296f480",
   "metadata": {
    "collapsed": true
   },
   "outputs": [
    {
     "name": "stdout",
     "output_type": "stream",
     "text": [
      "Model: \"sequential_8\"\n",
      "_________________________________________________________________\n",
      " Layer (type)                Output Shape              Param #   \n",
      "=================================================================\n",
      " conv2d_21 (Conv2D)          (None, 198, 148, 10)      280       \n",
      "                                                                 \n",
      " max_pooling2d_15 (MaxPoolin  (None, 99, 74, 10)       0         \n",
      " g2D)                                                            \n",
      "                                                                 \n",
      " conv2d_22 (Conv2D)          (None, 97, 72, 10)        910       \n",
      "                                                                 \n",
      " max_pooling2d_16 (MaxPoolin  (None, 48, 36, 10)       0         \n",
      " g2D)                                                            \n",
      "                                                                 \n",
      " conv2d_23 (Conv2D)          (None, 46, 34, 10)        910       \n",
      "                                                                 \n",
      " global_average_pooling2d_8   (None, 10)               0         \n",
      " (GlobalAveragePooling2D)                                        \n",
      "                                                                 \n",
      " flatten_8 (Flatten)         (None, 10)                0         \n",
      "                                                                 \n",
      " dense_25 (Dense)            (None, 250)               2750      \n",
      "                                                                 \n",
      " dropout_17 (Dropout)        (None, 250)               0         \n",
      "                                                                 \n",
      " dense_26 (Dense)            (None, 125)               31375     \n",
      "                                                                 \n",
      " dropout_18 (Dropout)        (None, 125)               0         \n",
      "                                                                 \n",
      " dense_27 (Dense)            (None, 25)                3150      \n",
      "                                                                 \n",
      " dropout_19 (Dropout)        (None, 25)                0         \n",
      "                                                                 \n",
      " dense_28 (Dense)            (None, 5)                 130       \n",
      "                                                                 \n",
      "=================================================================\n",
      "Total params: 39,505\n",
      "Trainable params: 39,505\n",
      "Non-trainable params: 0\n",
      "_________________________________________________________________\n"
     ]
    }
   ],
   "source": [
    "## try 4\n",
    "\n",
…
      "Val: 0.5411764705882353\n"
     ]
    }
   ],
   "source": [
    "get_accuracy(model_cnn4)"
   ]
  },
  {
   "cell_type": "code",
   "execution_count": 43,
   "id": "787dc1a9",
   "metadata": {
    "collapsed": true
   },
   "outputs": [
    {
     "name": "stdout",
     "output_type": "stream",
     "text": [
      "Model: \"sequential_9\"\n",
      "_________________________________________________________________\n",
      " Layer (type)                Output Shape              Param #   \n",
      "=================================================================\n",
      " conv2d_24 (Conv2D)          (None, 200, 150, 20)      560       \n",
      "                                                                 \n",
      " max_pooling2d_17 (MaxPoolin  (None, 100, 75, 20)      0         \n",
      " g2D)                                                            \n",
      "                                                                 \n",
      " conv2d_25 (Conv2D)          (None, 100, 75, 20)       3620      \n",
      "                                                                 \n",
      " max_pooling2d_18 (MaxPoolin  (None, 50, 37, 20)       0         \n",
      " g2D)                                                            \n",
      "                                                                 \n",
      " conv2d_26 (Conv2D)          (None, 50, 37, 20)        3620      \n",
      "                                                                 \n",
      " global_average_pooling2d_9   (None, 20)               0         \n",
      " (GlobalAveragePooling2D)                                        \n",
      "                                                                 \n",
      " flatten_9 (Flatten)         (None, 20)                0         \n",
      "                                                                 \n",
      " dense_29 (Dense)            (None, 250)               5250      \n",
      "                                                                 \n",
      " dropout_20 (Dropout)        (None, 250)               0         \n",
      "                                                                 \n",
      " dense_30 (Dense)            (None, 125)               31375     \n",
      "                                                                 \n",
      " dropout_21 (Dropout)        (None, 125)               0         \n",
      "                                                                 \n",
      " dense_31 (Dense)            (None, 25)                3150      \n",
      "                                                                 \n",
      " dropout_22 (Dropout)        (None, 25)                0         \n",
      "                                                                 \n",
      " dense_32 (Dense)            (None, 5)                 130       \n",
      "                                                                 \n",
      "=================================================================\n",
      "Total params: 47,705\n",
      "Trainable params: 47,705\n",
      "Non-trainable params: 0\n",
      "_________________________________________________________________\n"
     ]
    },
    {
     "name": "stderr",
     "output_type": "stream",
…
      "Val: 0.4323529411764706\n"
     ]
    }
   ],
   "source": [
    "get_accuracy(model_cnn5)"
   ]
  },
  {
   "cell_type": "code",
   "execution_count": 29,
   "id": "a10cdc1b",
   "metadata": {
    "collapsed": true
   },
   "outputs": [
    {
     "name": "stdout",
     "output_type": "stream",
     "text": [
      "Model: \"sequential_4\"\n",
      "_________________________________________________________________\n",
      " Layer (type)                Output Shape              Param #   \n",
      "=================================================================\n",
      " conv2d_9 (Conv2D)           (None, 198, 148, 20)      560       \n",
      "                                                                 \n",
      " max_pooling2d_7 (MaxPooling  (None, 99, 74, 20)       0         \n",
      " 2D)                                                             \n",
      "                                                                 \n",
      " conv2d_10 (Conv2D)          (None, 97, 72, 20)        3620      \n",
      "                                                                 \n",
      " max_pooling2d_8 (MaxPooling  (None, 48, 36, 20)       0         \n",
      " 2D)                                                             \n",
      "                                                                 \n",
      " conv2d_11 (Conv2D)          (None, 46, 34, 20)        3620      \n",
      "                                                                 \n",
      " global_average_pooling2d_4   (None, 20)               0         \n",
      " (GlobalAveragePooling2D)                                        \n",
      "                                                                 \n",
      " flatten_4 (Flatten)         (None, 20)                0         \n",
      "                                                                 \n",
      " dense_12 (Dense)            (None, 250)               5250      \n",
      "                                                                 \n",
      " dropout_8 (Dropout)         (None, 250)               0         \n",
      "                                                                 \n",
      " dense_13 (Dense)            (None, 125)               31375     \n",
      "                                                                 \n",
      " dropout_9 (Dropout)         (None, 125)               0         \n",
      "                                                                 \n",
      " dense_14 (Dense)            (None, 25)                3150      \n",
      "                                                                 \n",
      " dropout_10 (Dropout)        (None, 25)                0         \n",
      "                                                                 \n",
      " dense_15 (Dense)            (None, 5)                 130       \n",
      "                                                                 \n",
      "=================================================================\n",
      "Total params: 47,705\n",
      "Trainable params: 47,705\n",
      "Non-trainable params: 0\n",
      "_________________________________________________________________\n"
     ]
    }
   ],
   "source": [
    "## try 6\n",
    "\n",
…
      "Val: 0.6235294117647059\n"
     ]
    }
   ],
   "source": [
    "get_accuracy(model_cnn6)"
   ]
  },
  {
   "cell_type": "code",
   "execution_count": 61,
   "id": "65e8425f",
   "metadata": {
    "collapsed": true
   },
   "outputs": [
    {
     "name": "stdout",
     "output_type": "stream",
     "text": [
      "Model: \"sequential_15\"\n",
      "_________________________________________________________________\n",
      " Layer (type)                Output Shape              Param #   \n",
      "=================================================================\n",
      " conv2d_42 (Conv2D)          (None, 198, 148, 30)      840       \n",
      "                                                                 \n",
      " max_pooling2d_30 (MaxPoolin  (None, 99, 74, 30)       0         \n",
      " g2D)                                                            \n",
      "                                                                 \n",
      " conv2d_43 (Conv2D)          (None, 97, 72, 30)        8130      \n",
      "                                                                 \n",
      " max_pooling2d_31 (MaxPoolin  (None, 48, 36, 30)       0         \n",
      " g2D)                                                            \n",
      "                                                                 \n",
      " conv2d_44 (Conv2D)          (None, 46, 34, 30)        8130      \n",
      "                                                                 \n",
      " max_pooling2d_32 (MaxPoolin  (None, 23, 17, 30)       0         \n",
      " g2D)                                                            \n",
      "                                                                 \n",
      " global_average_pooling2d_15  (None, 30)               0         \n",
      "  (GlobalAveragePooling2D)                                       \n",
      "                                                                 \n",
      " flatten_15 (Flatten)        (None, 30)                0         \n",
      "                                                                 \n",
      " dense_54 (Dense)            (None, 500)               15500     \n",
      "                                                                 \n",
      " dropout_39 (Dropout)        (None, 500)               0         \n",
      "                                                                 \n",
      " dense_55 (Dense)            (None, 250)               125250    \n",
      "                                                                 \n",
      " dropout_40 (Dropout)        (None, 250)               0         \n",
      "                                                                 \n",
      " dense_56 (Dense)            (None, 125)               31375     \n",
      "                                                                 \n",
      " dropout_41 (Dropout)        (None, 125)               0         \n",
      "                                                                 \n",
      " dense_57 (Dense)            (None, 25)                3150      \n",
      "                                                                 \n",
      " dropout_42 (Dropout)        (None, 25)                0         \n",
      "                                                                 \n",
      " dense_58 (Dense)            (None, 5)                 130       \n",
      "                                                                 \n",
      "=================================================================\n",
      "Total params: 192,505\n",
      "Trainable params: 192,505\n",
      "Non-trainable params: 0\n",
      "_________________________________________________________________\n"
     ]
    },
    {
     "name": "stderr",
     "output_type": "stream",
…
    "image= np.vstack([Z])\n",
    "val= model_cnn7.predict([image])\n",
    "ind=max(val).argmax()\n",
    "print(folders[ind])"
   ]
  },
  {
   "cell_type": "code",
   "execution_count": 96,
   "id": "a11e758e",
   "metadata": {},
   "outputs": [
    {
     "name": "stdout",
     "output_type": "stream",
     "text": [
      "Model: \"sequential_18\"\n",
      "_________________________________________________________________\n",
      " Layer (type)                Output Shape              Param #   \n",
      "=================================================================\n",
      " conv2d_51 (Conv2D)          (None, 198, 148, 30)      840       \n",
      "                                                                 \n",
      " max_pooling2d_38 (MaxPoolin  (None, 99, 74, 30)       0         \n",
      " g2D)                                                            \n",
      "                                                                 \n",
      " conv2d_52 (Conv2D)          (None, 97, 72, 30)        8130      \n",
      "                                                                 \n",
      " max_pooling2d_39 (MaxPoolin  (None, 48, 36, 30)       0         \n",
      " g2D)                                                            \n",
      "                                                                 \n",
      " conv2d_53 (Conv2D)          (None, 46, 34, 30)        8130      \n",
      "                                                                 \n",
      " global_average_pooling2d_18  (None, 30)               0         \n",
      "  (GlobalAveragePooling2D)                                       \n",
      "                                                                 \n",
      " flatten_18 (Flatten)        (None, 30)                0         \n",
      "                                                                 \n",
      " dense_71 (Dense)            (None, 1000)              31000     \n",
      "                                                                 \n",
      " dropout_53 (Dropout)        (None, 1000)              0         \n",
      "                                                                 \n",
      " dense_72 (Dense)            (None, 500)               500500    \n",
      "                                                                 \n",
      " dropout_54 (Dropout)        (None, 500)               0         \n",
      "                                                                 \n",
      " dense_73 (Dense)            (None, 250)               125250    \n",
      "                                                                 \n",
      " dropout_55 (Dropout)        (None, 250)               0         \n",
      "                                                                 \n",
      " dense_74 (Dense)            (None, 125)               31375     \n",
      "                                                                 \n",
      " dropout_56 (Dropout)        (None, 125)               0         \n",
      "                                                                 \n",
      " dense_75 (Dense)            (None, 25)                3150      \n",
      "                                                                 \n",
      " dropout_57 (Dropout)        (None, 25)                0         \n",
      "                                                                 \n",
      " dense_76 (Dense)            (None, 5)                 130       \n",
      "                                                                 \n",
      "=================================================================\n",
      "Total params: 708,505\n",
      "Trainable params: 708,505\n",
      "Non-trainable params: 0\n",
      "_________________________________________________________________\n"
     ]
    },
    {
     "name": "stderr",
     "output_type": "stream",
…
   "cell_type": "markdown",
   "id": "b97bdecb",
   "metadata": {},
   "source": [
    "## transfer Learning "
   ]
  },
  {
   "cell_type": "code",
   "execution_count": 171,
   "id": "e64c2124",
   "metadata": {},
   "outputs": [
    {
     "name": "stdout",
     "output_type": "stream",
     "text": [
      "Model: \"sequential_41\"\n",
      "_________________________________________________________________\n",
      " Layer (type)                Output Shape              Param #   \n",
      "=================================================================\n",
      " vgg16 (Functional)          (None, 6, 4, 512)         14714688  \n",
      "                                                                 \n",
      " conv2d_3 (Conv2D)           (None, 4, 2, 15)          69135     \n",
      "                                                                 \n",
      " flatten_43 (Flatten)        (None, 120)               0         \n",
      "                                                                 \n",
      " dense_94 (Dense)            (None, 125)               15125     \n",
      "                                                                 \n",
      " dense_95 (Dense)            (None, 25)                3150      \n",
      "                                                                 \n",
      " dense_96 (Dense)            (None, 5)                 130       \n",
      "                                                                 \n",
      "=================================================================\n",
      "Total params: 14,802,228\n",
      "Trainable params: 87,540\n",
      "Non-trainable params: 14,714,688\n",
      "_________________________________________________________________\n"
     ]
    }
   ],
   "source": [
    "from keras.applications.vgg16 import VGG16   \n",
…
   "id": "f6e8f0c5",
   "metadata": {},
   "outputs": [
    {
     "name": "stdout",
     "output_type": "stream",
     "text": [
      "WARNING:tensorflow:`input_shape` is undefined or non-square, or `rows` is not in [96, 128, 160, 192, 224]. Weights for input shape (224, 224) will be loaded as the default.\n",
      "Model: \"sequential_43\"\n",
      "_________________________________________________________________\n",
      " Layer (type)                Output Shape              Param #   \n",
      "=================================================================\n",
      " mobilenetv2_1.00_224 (Funct  (None, 7, 5, 1280)       2257984   \n",
      " ional)                                                          \n",
      "                                                                 \n",
      " flatten_45 (Flatten)        (None, 44800)             0         \n",
      "                                                                 \n",
      " dense_100 (Dense)           (None, 125)               5600125   \n",
      "                                                                 \n",
      " dense_101 (Dense)           (None, 25)                3150      \n",
      "                                                                 \n",
      " dense_102 (Dense)           (None, 5)                 130       \n",
      "                                                                 \n",
      "=================================================================\n",
      "Total params: 7,861,389\n",
      "Trainable params: 5,603,405\n",
      "Non-trainable params: 2,257,984\n",
      "_________________________________________________________________\n"
     ]
    }
   ],
   "source": [
    "from tensorflow.keras.applications import mobilenet_v2\n",
…
      "__________________________________________________________________________________________________\n",
      " Layer (type)                   Output Shape         Param #     Connected to                     \n",
      "==================================================================================================\n",
      " input_45 (InputLayer)          [(None, 200, 150, 3  0           []                               \n",
      "                                )]                                                                \n",
      "                                                                                                  \n",
      " rescaling_4 (Rescaling)        (None, 200, 150, 3)  0           ['input_45[0][0]']               \n",
      "                                                                                                  \n",
      " normalization_3 (Normalization  (None, 200, 150, 3)  7          ['rescaling_4[0][0]']            \n",
      " )                                                                                                \n",
      "                                                                                                  \n",
      " stem_conv_pad (ZeroPadding2D)  (None, 201, 151, 3)  0           ['normalization_3[0][0]']        \n",
      "                                                                                                  \n",
      " stem_conv (Conv2D)             (None, 100, 75, 32)  864         ['stem_conv_pad[0][0]']          \n",
      "                                                                                                  \n",
      " stem_bn (BatchNormalization)   (None, 100, 75, 32)  128         ['stem_conv[0][0]']              \n",
      "                                                                                                  \n",
      " stem_activation (Activation)   (None, 100, 75, 32)  0           ['stem_bn[0][0]']                \n",
      "                                                                                                  \n",
      " block1a_dwconv (DepthwiseConv2  (None, 100, 75, 32)  288        ['stem_activation[0][0]']        \n",
      " D)                                                                                               \n",
      "                                                                                                  \n",
      " block1a_bn (BatchNormalization  (None, 100, 75, 32)  128        ['block1a_dwconv[0][0]']         \n",
      " )                                                                                                \n",
      "                                                                                                  \n",
      " block1a_activation (Activation  (None, 100, 75, 32)  0          ['block1a_bn[0][0]']             \n",
      " )                                                                                                \n",
      "                                                                                                  \n",
      " block1a_se_squeeze (GlobalAver  (None, 32)          0           ['block1a_activation[0][0]']     \n",
      " agePooling2D)                                                                                    \n",
      "                                                                                                  \n",
      " block1a_se_reshape (Reshape)   (None, 1, 1, 32)     0           ['block1a_se_squeeze[0][0]']     \n",
      "                                                                                                  \n",
      " block1a_se_reduce (Conv2D)     (None, 1, 1, 8)      264         ['block1a_se_reshape[0][0]']     \n",
      "                                                                                                  \n",
      " block1a_se_expand (Conv2D)     (None, 1, 1, 32)     288         ['block1a_se_reduce[0][0]']      \n",
      "                                                                                                  \n",
      " block1a_se_excite (Multiply)   (None, 100, 75, 32)  0           ['block1a_activation[0][0]',     \n",
      "                                                                  'block1a_se_expand[0][0]']      \n",
      "                                                                                                  \n",
      " block1a_project_conv (Conv2D)  (None, 100, 75, 16)  512         ['block1a_se_excite[0][0]']      \n",
      "                                                                                                  \n",
      " block1a_project_bn (BatchNorma  (None, 100, 75, 16)  64         ['block1a_project_conv[0][0]']   \n",
      " lization)                                                                                        \n",
      "                                                                                                  \n",
      " block1b_dwconv (DepthwiseConv2  (None, 100, 75, 16)  144        ['block1a_project_bn[0][0]']     \n",
      " D)                                                                                               \n",
      "                                                                                                  \n",
      " block1b_bn (BatchNormalization  (None, 100, 75, 16)  64         ['block1b_dwconv[0][0]']         \n",
      " )                                                                                                \n",
      "                                                                                                  \n",
      " block1b_activation (Activation  (None, 100, 75, 16)  0          ['block1b_bn[0][0]']             \n",
      " )                                                                                                \n",
      "                                                                                                  \n",
      " block1b_se_squeeze (GlobalAver  (None, 16)          0           ['block1b_activation[0][0]']     \n",
      " agePooling2D)                                                                                    \n",
      "                                                                                                  \n",
      " block1b_se_reshape (Reshape)   (None, 1, 1, 16)     0           ['block1b_se_squeeze[0][0]']     \n",
      "                                                                                                  \n",
      " block1b_se_reduce (Conv2D)     (None, 1, 1, 4)      68          ['block1b_se_reshape[0][0]']     \n",
      "                                                                                                  \n",
      " block1b_se_expand (Conv2D)     (None, 1, 1, 16)     80          ['block1b_se_reduce[0][0]']      \n",
      "                                                                                                  \n",
      " block1b_se_excite (Multiply)   (None, 100, 75, 16)  0           ['block1b_activation[0][0]',     \n",
      "                                                                  'block1b_se_expand[0][0]']      \n",
      "                                                                                                  \n",
      " block1b_project_conv (Conv2D)  (None, 100, 75, 16)  256         ['block1b_se_excite[0][0]']      \n",
      "                                                                                                  \n",
      " block1b_project_bn (BatchNorma  (None, 100, 75, 16)  64         ['block1b_project_conv[0][0]']   \n",
      " lization)                                                                                        \n",
      "                                                                                                  \n",
      " block1b_drop (Dropout)         (None, 100, 75, 16)  0           ['block1b_project_bn[0][0]']     \n",
      "                                                                                                  \n",
      " block1b_add (Add)              (None, 100, 75, 16)  0           ['block1b_drop[0][0]',           \n",
      "                                                                  'block1a_project_bn[0][0]']     \n",
      "                                                                                                  \n",
      " block2a_expand_conv (Conv2D)   (None, 100, 75, 96)  1536        ['block1b_add[0][0]']            \n",
      "                                                                                                  \n",
      " block2a_expand_bn (BatchNormal  (None, 100, 75, 96)  384        ['block2a_expand_conv[0][0]']    \n",
      " ization)                                                                                         \n",
      "                                                                                                  \n",
      " block2a_expand_activation (Act  (None, 100, 75, 96)  0          ['block2a_expand_bn[0][0]']      \n",
      " ivation)                                                                                         \n",
      "                                                                                                  \n",
      " block2a_dwconv_pad (ZeroPaddin  (None, 101, 77, 96)  0          ['block2a_expand_activation[0][0]\n",
      " g2D)                                                            ']                               \n",
      "                                                                                                  \n",
      " block2a_dwconv (DepthwiseConv2  (None, 50, 38, 96)  864         ['block2a_dwconv_pad[0][0]']     \n",
      " D)                                                                                               \n",
      "                                                                                                  \n",
      " block2a_bn (BatchNormalization  (None, 50, 38, 96)  384         ['block2a_dwconv[0][0]']         \n",
      " )                                                                                                \n",
      "                                                                                                  \n",
      " block2a_activation (Activation  (None, 50, 38, 96)  0           ['block2a_bn[0][0]']             \n",
      " )                                                                                                \n",
      "                                                                                                  \n",
      " block2a_se_squeeze (GlobalAver  (None, 96)          0           ['block2a_activation[0][0]']     \n",
      " agePooling2D)                                                                                    \n",
      "                                                                                                  \n",
      " block2a_se_reshape (Reshape)   (None, 1, 1, 96)     0           ['block2a_se_squeeze[0][0]']     \n",
      "                                                                                                  \n",
      " block2a_se_reduce (Conv2D)     (None, 1, 1, 4)      388         ['block2a_se_reshape[0][0]']     \n",
      "                                                                                                  \n",
      " block2a_se_expand (Conv2D)     (None, 1, 1, 96)     480         ['block2a_se_reduce[0][0]']      \n",
      "                                                                                                  \n",
      " block2a_se_excite (Multiply)   (None, 50, 38, 96)   0           ['block2a_activation[0][0]',     \n",
      "                                                                  'block2a_se_expand[0][0]']      \n",
      "                                                                                                  \n",
      " block2a_project_conv (Conv2D)  (None, 50, 38, 24)   2304        ['block2a_se_excite[0][0]']      \n",
      "                                                                                                  \n",
      " block2a_project_bn (BatchNorma  (None, 50, 38, 24)  96          ['block2a_project_conv[0][0]']   \n",
      " lization)                                                                                        \n",
      "                                                                                                  \n",
      " block2b_expand_conv (Conv2D)   (None, 50, 38, 144)  3456        ['block2a_project_bn[0][0]']     \n",
      "                                                                                                  \n",
      " block2b_expand_bn (BatchNormal  (None, 50, 38, 144)  576        ['block2b_expand_conv[0][0]']    \n",
      " ization)                                                                                         \n",
      "                                                                                                  \n",
      " block2b_expand_activation (Act  (None, 50, 38, 144)  0          ['block2b_expand_bn[0][0]']      \n",
      " ivation)                                                                                         \n",
      "                                                                                                  \n",
      " block2b_dwconv (DepthwiseConv2  (None, 50, 38, 144)  1296       ['block2b_expand_activation[0][0]\n",
      " D)                                                              ']                               \n",
      "                                                                                                  \n",
      " block2b_bn (BatchNormalization  (None, 50, 38, 144)  576        ['block2b_dwconv[0][0]']         \n",
      " )                                                                                                \n",
      "                                                                                                  \n",
      " block2b_activation (Activation  (None, 50, 38, 144)  0          ['block2b_bn[0][0]']             \n",
      " )                                                                                                \n",
      "                                                                                                  \n",
      " block2b_se_squeeze (GlobalAver  (None, 144)         0           ['block2b_activation[0][0]']     \n",
      " agePooling2D)                                                                                    \n",
      "                                                                                                  \n",
      " block2b_se_reshape (Reshape)   (None, 1, 1, 144)    0           ['block2b_se_squeeze[0][0]']     \n",
      "                                                                                                  \n",
      " block2b_se_reduce (Conv2D)     (None, 1, 1, 6)      870         ['block2b_se_reshape[0][0]']     \n",
      "                                                                                                  \n",
      " block2b_se_expand (Conv2D)     (None, 1, 1, 144)    1008        ['block2b_se_reduce[0][0]']      \n",
      "                                                                                                  \n",
      " block2b_se_excite (Multiply)   (None, 50, 38, 144)  0           ['block2b_activation[0][0]',     \n",
      "                                                                  'block2b_se_expand[0][0]']      \n",
      "                                                                                                  \n",
      " block2b_project_conv (Conv2D)  (None, 50, 38, 24)   3456        ['block2b_se_excite[0][0]']      \n",
      "                                                                                                  \n",
      " block2b_project_bn (BatchNorma  (None, 50, 38, 24)  96          ['block2b_project_conv[0][0]']   \n",
      " lization)                                                                                        \n",
      "                                                                                                  \n",
      " block2b_drop (Dropout)         (None, 50, 38, 24)   0           ['block2b_project_bn[0][0]']     \n",
      "                                                                                                  \n",
      " block2b_add (Add)              (None, 50, 38, 24)   0           ['block2b_drop[0][0]',           \n",
      "                                                                  'block2a_project_bn[0][0]']     \n",
      "                                                                                                  \n",
      " block2c_expand_conv (Conv2D)   (None, 50, 38, 144)  3456        ['block2b_add[0][0]']            \n",
      "                                                                                                  \n",
      " block2c_expand_bn (BatchNormal  (None, 50, 38, 144)  576        ['block2c_expand_conv[0][0]']    \n",
      " ization)                                                                                         \n",
      "                                                                                                  \n",
      " block2c_expand_activation (Act  (None, 50, 38, 144)  0          ['block2c_expand_bn[0][0]']      \n",
      " ivation)                                                                                         \n",
      "                                                                                                  \n",
      " block2c_dwconv (DepthwiseConv2  (None, 50, 38, 144)  1296       ['block2c_expand_activation[0][0]\n",
      " D)                                                              ']                               \n",
      "                                                                                                  \n",
      " block2c_bn (BatchNormalization  (None, 50, 38, 144)  576        ['block2c_dwconv[0][0]']         \n",
      " )                                                                                                \n",
      "                                                                                                  \n",
      " block2c_activation (Activation  (None, 50, 38, 144)  0          ['block2c_bn[0][0]']             \n",
      " )                                                                                                \n",
      "                                                                                                  \n",
      " block2c_se_squeeze (GlobalAver  (None, 144)         0           ['block2c_activation[0][0]']     \n",
      " agePooling2D)                                                                                    \n",
      "                                                                                                  \n",
      " block2c_se_reshape (Reshape)   (None, 1, 1, 144)    0           ['block2c_se_squeeze[0][0]']     \n",
      "                                                                                                  \n",
      " block2c_se_reduce (Conv2D)     (None, 1, 1, 6)      870         ['block2c_se_reshape[0][0]']     \n",
      "                                                                                                  \n",
      " block2c_se_expand (Conv2D)     (None, 1, 1, 144)    1008        ['block2c_se_reduce[0][0]']      \n",
      "                                                                                                  \n",
      " block2c_se_excite (Multiply)   (None, 50, 38, 144)  0           ['block2c_activation[0][0]',     \n",
      "                                                                  'block2c_se_expand[0][0]']      \n",
      "                                                                                                  \n",
      " block2c_project_conv (Conv2D)  (None, 50, 38, 24)   3456        ['block2c_se_excite[0][0]']      \n",
      "                                                                                                  \n",
      " block2c_project_bn (BatchNorma  (None, 50, 38, 24)  96          ['block2c_project_conv[0][0]']   \n",
      " lization)                                                                                        \n",
      "                                                                                                  \n",
      " block2c_drop (Dropout)         (None, 50, 38, 24)   0           ['block2c_project_bn[0][0]']     \n",
      "                                                                                                  \n",
      " block2c_add (Add)              (None, 50, 38, 24)   0           ['block2c_drop[0][0]',           \n",
      "                                                                  'block2b_add[0][0]']            \n",
      "                                                                                                  \n",
      " block3a_expand_conv (Conv2D)   (None, 50, 38, 144)  3456        ['block2c_add[0][0]']            \n",
      "                                                                                                  \n",
      " block3a_expand_bn (BatchNormal  (None, 50, 38, 144)  576        ['block3a_expand_conv[0][0]']    \n",
      " ization)                                                                                         \n",
      "                                                                                                  \n",
      " block3a_expand_activation (Act  (None, 50, 38, 144)  0          ['block3a_expand_bn[0][0]']      \n",
      " ivation)                                                                                         \n",
      "                                                                                                  \n",
      " block3a_dwconv_pad (ZeroPaddin  (None, 53, 41, 144)  0          ['block3a_expand_activation[0][0]\n",
      " g2D)                                                            ']                               \n",
      "                                                                                                  \n",
      " block3a_dwconv (DepthwiseConv2  (None, 25, 19, 144)  3600       ['block3a_dwconv_pad[0][0]']     \n",
      " D)                                                                                               \n",
      "                                                                                                  \n",
      " block3a_bn (BatchNormalization  (None, 25, 19, 144)  576        ['block3a_dwconv[0][0]']         \n",
      " )                                                                                                \n",
      "                                                                                                  \n",
      " block3a_activation (Activation  (None, 25, 19, 144)  0          ['block3a_bn[0][0]']             \n",
      " )                                                                                                \n",
      "                                                                                                  \n",
      " block3a_se_squeeze (GlobalAver  (None, 144)         0           ['block3a_activation[0][0]']     \n",
      " agePooling2D)                                                                                    \n",
      "                                                                                                  \n",
      " block3a_se_reshape (Reshape)   (None, 1, 1, 144)    0           ['block3a_se_squeeze[0][0]']     \n",
      "                                                                                                  \n",
      " block3a_se_reduce (Conv2D)     (None, 1, 1, 6)      870         ['block3a_se_reshape[0][0]']     \n",
      "                                                                                                  \n",
      " block3a_se_expand (Conv2D)     (None, 1, 1, 144)    1008        ['block3a_se_reduce[0][0]']      \n",
      "                                                                                                  \n",
      " block3a_se_excite (Multiply)   (None, 25, 19, 144)  0           ['block3a_activation[0][0]',     \n",
      "                                                                  'block3a_se_expand[0][0]']      \n",
      "                                                                                                  \n",
      " block3a_project_conv (Conv2D)  (None, 25, 19, 48)   6912        ['block3a_se_excite[0][0]']      \n",
      "                                                                                                  \n",
      " block3a_project_bn (BatchNorma  (None, 25, 19, 48)  192         ['block3a_project_conv[0][0]']   \n",
      " lization)                                                                                        \n",
      "                                                                                                  \n",
      " block3b_expand_conv (Conv2D)   (None, 25, 19, 288)  13824       ['block3a_project_bn[0][0]']     \n",
      "                                                                                                  \n",
      " block3b_expand_bn (BatchNormal  (None, 25, 19, 288)  1152       ['block3b_expand_conv[0][0]']    \n",
      " ization)                                                                                         \n",
      "                                                                                                  \n",
      " block3b_expand_activation (Act  (None, 25, 19, 288)  0          ['block3b_expand_bn[0][0]']      \n",
      " ivation)                                                                                         \n",
      "                                                                                                  \n",
      " block3b_dwconv (DepthwiseConv2  (None, 25, 19, 288)  7200       ['block3b_expand_activation[0][0]\n",
      " D)                                                              ']                               \n",
      "                                                                                                  \n",
      " block3b_bn (BatchNormalization  (None, 25, 19, 288)  1152       ['block3b_dwconv[0][0]']         \n",
      " )                                                                                                \n",
      "                                                                                                  \n",
      " block3b_activation (Activation  (None, 25, 19, 288)  0          ['block3b_bn[0][0]']             \n",
      " )                                                                                                \n",
      "                                                                                                  \n",
      " block3b_se_squeeze (GlobalAver  (None, 288)         0           ['block3b_activation[0][0]']     \n",
      " agePooling2D)                                                                                    \n",
      "                                                                                                  \n",
      " block3b_se_reshape (Reshape)   (None, 1, 1, 288)    0           ['block3b_se_squeeze[0][0]']     \n",
      "                                                                                                  \n",
      " block3b_se_reduce (Conv2D)     (None, 1, 1, 12)     3468        ['block3b_se_reshape[0][0]']     \n",
      "                                                                                                  \n",
      " block3b_se_expand (Conv2D)     (None, 1, 1, 288)    3744        ['block3b_se_reduce[0][0]']      \n",
      "                                                                                                  \n",
      " block3b_se_excite (Multiply)   (None, 25, 19, 288)  0           ['block3b_activation[0][0]',     \n",
      "                                                                  'block3b_se_expand[0][0]']      \n",
      "                                                                                                  \n",
      " block3b_project_conv (Conv2D)  (None, 25, 19, 48)   13824       ['block3b_se_excite[0][0]']      \n",
      "                                                                                                  \n",
      " block3b_project_bn (BatchNorma  (None, 25, 19, 48)  192         ['block3b_project_conv[0][0]']   \n",
      " lization)                                                                                        \n",
      "                                                                                                  \n",
      " block3b_drop (Dropout)         (None, 25, 19, 48)   0           ['block3b_project_bn[0][0]']     \n",
      "                                                                                                  \n",
      " block3b_add (Add)              (None, 25, 19, 48)   0           ['block3b_drop[0][0]',           \n",
      "                                                                  'block3a_project_bn[0][0]']     \n",
      "                                                                                                  \n",
      " block3c_expand_conv (Conv2D)   (None, 25, 19, 288)  13824       ['block3b_add[0][0]']            \n",
      "                                                                                                  \n",
      " block3c_expand_bn (BatchNormal  (None, 25, 19, 288)  1152       ['block3c_expand_conv[0][0]']    \n",
      " ization)                                                                                         \n",
      "                                                                                                  \n",
      " block3c_expand_activation (Act  (None, 25, 19, 288)  0          ['block3c_expand_bn[0][0]']      \n",
      " ivation)                                                                                         \n",
      "                                                                                                  \n",
      " block3c_dwconv (DepthwiseConv2  (None, 25, 19, 288)  7200       ['block3c_expand_activation[0][0]\n",
      " D)                                                              ']                               \n",
      "                                                                                                  \n",
      " block3c_bn (BatchNormalization  (None, 25, 19, 288)  1152       ['block3c_dwconv[0][0]']         \n",
      " )                                                                                                \n",
      "                                                                                                  \n",
      " block3c_activation (Activation  (None, 25, 19, 288)  0          ['block3c_bn[0][0]']             \n",
      " )                                                                                                \n",
      "                                                                                                  \n",
      " block3c_se_squeeze (GlobalAver  (None, 288)         0           ['block3c_activation[0][0]']     \n",
      " agePooling2D)                                                                                    \n",
      "                                                                                                  \n",
      " block3c_se_reshape (Reshape)   (None, 1, 1, 288)    0           ['block3c_se_squeeze[0][0]']     \n",
      "                                                                                                  \n",
      " block3c_se_reduce (Conv2D)     (None, 1, 1, 12)     3468        ['block3c_se_reshape[0][0]']     \n",
      "                                                                                                  \n",
      " block3c_se_expand (Conv2D)     (None, 1, 1, 288)    3744        ['block3c_se_reduce[0][0]']      \n",
      "                                                                                                  \n",
      " block3c_se_excite (Multiply)   (None, 25, 19, 288)  0           ['block3c_activation[0][0]',     \n",
      "                                                                  'block3c_se_expand[0][0]']      \n",
      "                                                                                                  \n",
      " block3c_project_conv (Conv2D)  (None, 25, 19, 48)   13824       ['block3c_se_excite[0][0]']      \n",
      "                                                                                                  \n",
      " block3c_project_bn (BatchNorma  (None, 25, 19, 48)  192         ['block3c_project_conv[0][0]']   \n",
      " lization)                                                                                        \n",
      "                                                                                                  \n",
      " block3c_drop (Dropout)         (None, 25, 19, 48)   0           ['block3c_project_bn[0][0]']     \n",
      "                                                                                                  \n",
      " block3c_add (Add)              (None, 25, 19, 48)   0           ['block3c_drop[0][0]',           \n",
      "                                                                  'block3b_add[0][0]']            \n",
      "                                                                                                  \n",
      " block4a_expand_conv (Conv2D)   (None, 25, 19, 288)  13824       ['block3c_add[0][0]']            \n",
      "                                                                                                  \n",
      " block4a_expand_bn (BatchNormal  (None, 25, 19, 288)  1152       ['block4a_expand_conv[0][0]']    \n",
      " ization)                                                                                         \n",
      "                                                                                                  \n",
      " block4a_expand_activation (Act  (None, 25, 19, 288)  0          ['block4a_expand_bn[0][0]']      \n",
      " ivation)                                                                                         \n",
      "                                                                                                  \n",
      " block4a_dwconv_pad (ZeroPaddin  (None, 27, 21, 288)  0          ['block4a_expand_activation[0][0]\n",
      " g2D)                                                            ']                               \n",
      "                                                                                                  \n",
      " block4a_dwconv (DepthwiseConv2  (None, 13, 10, 288)  2592       ['block4a_dwconv_pad[0][0]']     \n",
      " D)                                                                                               \n",
      "                                                                                                  \n",
      " block4a_bn (BatchNormalization  (None, 13, 10, 288)  1152       ['block4a_dwconv[0][0]']         \n",
      " )                                                                                                \n",
      "                                                                                                  \n",
      " block4a_activation (Activation  (None, 13, 10, 288)  0          ['block4a_bn[0][0]']             \n",
      " )                                                                                                \n",
      "                                                                                                  \n",
      " block4a_se_squeeze (GlobalAver  (None, 288)         0           ['block4a_activation[0][0]']     \n",
      " agePooling2D)                                                                                    \n",
      "                                                                                                  \n",
      " block4a_se_reshape (Reshape)   (None, 1, 1, 288)    0           ['block4a_se_squeeze[0][0]']     \n",
      "                                                                                                  \n",
      " block4a_se_reduce (Conv2D)     (None, 1, 1, 12)     3468        ['block4a_se_reshape[0][0]']     \n",
      "                                                                                                  \n",
      " block4a_se_expand (Conv2D)     (None, 1, 1, 288)    3744        ['block4a_se_reduce[0][0]']      \n",
      "                                                                                                  \n",
      " block4a_se_excite (Multiply)   (None, 13, 10, 288)  0           ['block4a_activation[0][0]',     \n",
      "                                                                  'block4a_se_expand[0][0]']      \n",
      "                                                                                                  \n",
      " block4a_project_conv (Conv2D)  (None, 13, 10, 88)   25344       ['block4a_se_excite[0][0]']      \n",
      "                                                                                                  \n",
      " block4a_project_bn (BatchNorma  (None, 13, 10, 88)  352         ['block4a_project_conv[0][0]']   \n",
      " lization)                                                                                        \n",
      "                                                                                                  \n",
      " block4b_expand_conv (Conv2D)   (None, 13, 10, 528)  46464       ['block4a_project_bn[0][0]']     \n",
      "                                                                                                  \n",
      " block4b_expand_bn (BatchNormal  (None, 13, 10, 528)  2112       ['block4b_expand_conv[0][0]']    \n",
      " ization)                                                                                         \n",
      "                                                                                                  \n",
      " block4b_expand_activation (Act  (None, 13, 10, 528)  0          ['block4b_expand_bn[0][0]']      \n",
      " ivation)                                                                                         \n",
      "                                                                                                  \n",
      " block4b_dwconv (DepthwiseConv2  (None, 13, 10, 528)  4752       ['block4b_expand_activation[0][0]\n",
      " D)                                                              ']                               \n",
      "                                                                                                  \n",
      " block4b_bn (BatchNormalization  (None, 13, 10, 528)  2112       ['block4b_dwconv[0][0]']         \n",
      " )                                                                                                \n",
      "                                                                                                  \n",
      " block4b_activation (Activation  (None, 13, 10, 528)  0          ['block4b_bn[0][0]']             \n",
      " )                                                                                                \n",
      "                                                                                                  \n",
      " block4b_se_squeeze (GlobalAver  (None, 528)         0           ['block4b_activation[0][0]']     \n",
      " agePooling2D)                                                                                    \n",
      "                                                                                                  \n",
      " block4b_se_reshape (Reshape)   (None, 1, 1, 528)    0           ['block4b_se_squeeze[0][0]']     \n",
      "                                                                                                  \n",
      " block4b_se_reduce (Conv2D)     (None, 1, 1, 22)     11638       ['block4b_se_reshape[0][0]']     \n",
      "                                                                                                  \n",
      " block4b_se_expand (Conv2D)     (None, 1, 1, 528)    12144       ['block4b_se_reduce[0][0]']      \n",
      "                                                                                                  \n",
      " block4b_se_excite (Multiply)   (None, 13, 10, 528)  0           ['block4b_activation[0][0]',     \n",
      "                                                                  'block4b_se_expand[0][0]']      \n",
      "                                                                                                  \n",
      " block4b_project_conv (Conv2D)  (None, 13, 10, 88)   46464       ['block4b_se_excite[0][0]']      \n",
      "                                                                                                  \n",
      " block4b_project_bn (BatchNorma  (None, 13, 10, 88)  352         ['block4b_project_conv[0][0]']   \n",
      " lization)                                                                                        \n",
      "                                                                                                  \n",
      " block4b_drop (Dropout)         (None, 13, 10, 88)   0           ['block4b_project_bn[0][0]']     \n",
      "                                                                                                  \n",
      " block4b_add (Add)              (None, 13, 10, 88)   0           ['block4b_drop[0][0]',           \n",
      "                                                                  'block4a_project_bn[0][0]']     \n",
      "                                                                                                  \n",
      " block4c_expand_conv (Conv2D)   (None, 13, 10, 528)  46464       ['block4b_add[0][0]']            \n",
      "                                                                                                  \n",
      " block4c_expand_bn (BatchNormal  (None, 13, 10, 528)  2112       ['block4c_expand_conv[0][0]']    \n",
      " ization)                                                                                         \n",
      "                                                                                                  \n",
      " block4c_expand_activation (Act  (None, 13, 10, 528)  0          ['block4c_expand_bn[0][0]']      \n",
      " ivation)                                                                                         \n",
      "                                                                                                  \n",
      " block4c_dwconv (DepthwiseConv2  (None, 13, 10, 528)  4752       ['block4c_expand_activation[0][0]\n",
      " D)                                                              ']                               \n",
      "                                                                                                  \n",
      " block4c_bn (BatchNormalization  (None, 13, 10, 528)  2112       ['block4c_dwconv[0][0]']         \n",
      " )                                                                                                \n",
      "                                                                                                  \n",
      " block4c_activation (Activation  (None, 13, 10, 528)  0          ['block4c_bn[0][0]']             \n",
      " )                                                                                                \n",
      "                                                                                                  \n",
      " block4c_se_squeeze (GlobalAver  (None, 528)         0           ['block4c_activation[0][0]']     \n",
      " agePooling2D)                                                                                    \n",
      "                                                                                                  \n",
      " block4c_se_reshape (Reshape)   (None, 1, 1, 528)    0           ['block4c_se_squeeze[0][0]']     \n",
      "                                                                                                  \n",
      " block4c_se_reduce (Conv2D)     (None, 1, 1, 22)     11638       ['block4c_se_reshape[0][0]']     \n",
      "                                                                                                  \n",
      " block4c_se_expand (Conv2D)     (None, 1, 1, 528)    12144       ['block4c_se_reduce[0][0]']      \n",
      "                                                                                                  \n",
      " block4c_se_excite (Multiply)   (None, 13, 10, 528)  0           ['block4c_activation[0][0]',     \n",
      "                                                                  'block4c_se_expand[0][0]']      \n",
      "                                                                                                  \n",
      " block4c_project_conv (Conv2D)  (None, 13, 10, 88)   46464       ['block4c_se_excite[0][0]']      \n",
      "                                                                                                  \n",
      " block4c_project_bn (BatchNorma  (None, 13, 10, 88)  352         ['block4c_project_conv[0][0]']   \n",
      " lization)                                                                                        \n",
      "                                                                                                  \n",
      " block4c_drop (Dropout)         (None, 13, 10, 88)   0           ['block4c_project_bn[0][0]']     \n",
      "                                                                                                  \n",
      " block4c_add (Add)              (None, 13, 10, 88)   0           ['block4c_drop[0][0]',           \n",
      "                                                                  'block4b_add[0][0]']            \n",
      "                                                                                                  \n",
      " block4d_expand_conv (Conv2D)   (None, 13, 10, 528)  46464       ['block4c_add[0][0]']            \n",
      "                                                                                                  \n",
      " block4d_expand_bn (BatchNormal  (None, 13, 10, 528)  2112       ['block4d_expand_conv[0][0]']    \n",
      " ization)                                                                                         \n",
      "                                                                                                  \n",
      " block4d_expand_activation (Act  (None, 13, 10, 528)  0          ['block4d_expand_bn[0][0]']      \n",
      " ivation)                                                                                         \n",
      "                                                                                                  \n",
      " block4d_dwconv (DepthwiseConv2  (None, 13, 10, 528)  4752       ['block4d_expand_activation[0][0]\n",
      " D)                                                              ']                               \n",
      "                                                                                                  \n",
      " block4d_bn (BatchNormalization  (None, 13, 10, 528)  2112       ['block4d_dwconv[0][0]']         \n",
      " )                                                                                                \n",
      "                                                                                                  \n",
      " block4d_activation (Activation  (None, 13, 10, 528)  0          ['block4d_bn[0][0]']             \n",
      " )                                                                                                \n",
      "                                                                                                  \n",
      " block4d_se_squeeze (GlobalAver  (None, 528)         0           ['block4d_activation[0][0]']     \n",
      " agePooling2D)                                                                                    \n",
      "                                                                                                  \n",
      " block4d_se_reshape (Reshape)   (None, 1, 1, 528)    0           ['block4d_se_squeeze[0][0]']     \n",
      "                                                                                                  \n",
      " block4d_se_reduce (Conv2D)     (None, 1, 1, 22)     11638       ['block4d_se_reshape[0][0]']     \n",
      "                                                                                                  \n",
      " block4d_se_expand (Conv2D)     (None, 1, 1, 528)    12144       ['block4d_se_reduce[0][0]']      \n",
      "                                                                                                  \n",
      " block4d_se_excite (Multiply)   (None, 13, 10, 528)  0           ['block4d_activation[0][0]',     \n",
      "                                                                  'block4d_se_expand[0][0]']      \n",
      "                                                                                                  \n",
      " block4d_project_conv (Conv2D)  (None, 13, 10, 88)   46464       ['block4d_se_excite[0][0]']      \n",
      "                                                                                                  \n",
      " block4d_project_bn (BatchNorma  (None, 13, 10, 88)  352         ['block4d_project_conv[0][0]']   \n",
      " lization)                                                                                        \n",
      "                                                                                                  \n",
      " block4d_drop (Dropout)         (None, 13, 10, 88)   0           ['block4d_project_bn[0][0]']     \n",
      "                                                                                                  \n",
      " block4d_add (Add)              (None, 13, 10, 88)   0           ['block4d_drop[0][0]',           \n",
      "                                                                  'block4c_add[0][0]']            \n",
      "                                                                                                  \n",
      " block5a_expand_conv (Conv2D)   (None, 13, 10, 528)  46464       ['block4d_add[0][0]']            \n",
      "                                                                                                  \n",
      " block5a_expand_bn (BatchNormal  (None, 13, 10, 528)  2112       ['block5a_expand_conv[0][0]']    \n",
      " ization)                                                                                         \n",
      "                                                                                                  \n",
      " block5a_expand_activation (Act  (None, 13, 10, 528)  0          ['block5a_expand_bn[0][0]']      \n",
      " ivation)                                                                                         \n",
      "                                                                                                  \n",
      " block5a_dwconv (DepthwiseConv2  (None, 13, 10, 528)  13200      ['block5a_expand_activation[0][0]\n",
      " D)                                                              ']                               \n",
      "                                                                                                  \n",
      " block5a_bn (BatchNormalization  (None, 13, 10, 528)  2112       ['block5a_dwconv[0][0]']         \n",
      " )                                                                                                \n",
      "                                                                                                  \n",
      " block5a_activation (Activation  (None, 13, 10, 528)  0          ['block5a_bn[0][0]']             \n",
      " )                                                                                                \n",
      "                                                                                                  \n",
      " block5a_se_squeeze (GlobalAver  (None, 528)         0           ['block5a_activation[0][0]']     \n",
      " agePooling2D)                                                                                    \n",
      "                                                                                                  \n",
      " block5a_se_reshape (Reshape)   (None, 1, 1, 528)    0           ['block5a_se_squeeze[0][0]']     \n",
      "                                                                                                  \n",
      " block5a_se_reduce (Conv2D)     (None, 1, 1, 22)     11638       ['block5a_se_reshape[0][0]']     \n",
      "                                                                                                  \n",
      " block5a_se_expand (Conv2D)     (None, 1, 1, 528)    12144       ['block5a_se_reduce[0][0]']      \n",
      "                                                                                                  \n",
      " block5a_se_excite (Multiply)   (None, 13, 10, 528)  0           ['block5a_activation[0][0]',     \n",
      "                                                                  'block5a_se_expand[0][0]']      \n",
      "                                                                                                  \n",
      " block5a_project_conv (Conv2D)  (None, 13, 10, 120)  63360       ['block5a_se_excite[0][0]']      \n",
      "                                                                                                  \n",
      " block5a_project_bn (BatchNorma  (None, 13, 10, 120)  480        ['block5a_project_conv[0][0]']   \n",
      " lization)                                                                                        \n",
      "                                                                                                  \n",
      " block5b_expand_conv (Conv2D)   (None, 13, 10, 720)  86400       ['block5a_project_bn[0][0]']     \n",
      "                                                                                                  \n",
      " block5b_expand_bn (BatchNormal  (None, 13, 10, 720)  2880       ['block5b_expand_conv[0][0]']    \n",
      " ization)                                                                                         \n",
      "                                                                                                  \n",
      " block5b_expand_activation (Act  (None, 13, 10, 720)  0          ['block5b_expand_bn[0][0]']      \n",
      " ivation)                                                                                         \n",
      "                                                                                                  \n",
      " block5b_dwconv (DepthwiseConv2  (None, 13, 10, 720)  18000      ['block5b_expand_activation[0][0]\n",
      " D)                                                              ']                               \n",
      "                                                                                                  \n",
      " block5b_bn (BatchNormalization  (None, 13, 10, 720)  2880       ['block5b_dwconv[0][0]']         \n",
      " )                                                                                                \n",
      "                                                                                                  \n",
      " block5b_activation (Activation  (None, 13, 10, 720)  0          ['block5b_bn[0][0]']             \n",
      " )                                                                                                \n",
      "                                                                                                  \n",
      " block5b_se_squeeze (GlobalAver  (None, 720)         0           ['block5b_activation[0][0]']     \n",
      " agePooling2D)                                                                                    \n",
      "                                                                                                  \n",
      " block5b_se_reshape (Reshape)   (None, 1, 1, 720)    0           ['block5b_se_squeeze[0][0]']     \n",
      "                                                                                                  \n",
      " block5b_se_reduce (Conv2D)     (None, 1, 1, 30)     21630       ['block5b_se_reshape[0][0]']     \n",
      "                                                                                                  \n",
      " block5b_se_expand (Conv2D)     (None, 1, 1, 720)    22320       ['block5b_se_reduce[0][0]']      \n",
      "                                                                                                  \n",
      " block5b_se_excite (Multiply)   (None, 13, 10, 720)  0           ['block5b_activation[0][0]',     \n",
      "                                                                  'block5b_se_expand[0][0]']      \n",
      "                                                                                                  \n",
      " block5b_project_conv (Conv2D)  (None, 13, 10, 120)  86400       ['block5b_se_excite[0][0]']      \n",
      "                                                                                                  \n",
      " block5b_project_bn (BatchNorma  (None, 13, 10, 120)  480        ['block5b_project_conv[0][0]']   \n",
      " lization)                                                                                        \n",
      "                                                                                                  \n",
      " block5b_drop (Dropout)         (None, 13, 10, 120)  0           ['block5b_project_bn[0][0]']     \n",
      "                                                                                                  \n",
      " block5b_add (Add)              (None, 13, 10, 120)  0           ['block5b_drop[0][0]',           \n",
      "                                                                  'block5a_project_bn[0][0]']     \n",
      "                                                                                                  \n",
      " block5c_expand_conv (Conv2D)   (None, 13, 10, 720)  86400       ['block5b_add[0][0]']            \n",
      "                                                                                                  \n",
      " block5c_expand_bn (BatchNormal  (None, 13, 10, 720)  2880       ['block5c_expand_conv[0][0]']    \n",
      " ization)                                                                                         \n",
      "                                                                                                  \n",
      " block5c_expand_activation (Act  (None, 13, 10, 720)  0          ['block5c_expand_bn[0][0]']      \n",
      " ivation)                                                                                         \n",
      "                                                                                                  \n",
      " block5c_dwconv (DepthwiseConv2  (None, 13, 10, 720)  18000      ['block5c_expand_activation[0][0]\n",
      " D)                                                              ']                               \n",
      "                                                                                                  \n",
      " block5c_bn (BatchNormalization  (None, 13, 10, 720)  2880       ['block5c_dwconv[0][0]']         \n",
      " )                                                                                                \n",
      "                                                                                                  \n",
      " block5c_activation (Activation  (None, 13, 10, 720)  0          ['block5c_bn[0][0]']             \n",
      " )                                                                                                \n",
      "                                                                                                  \n",
      " block5c_se_squeeze (GlobalAver  (None, 720)         0           ['block5c_activation[0][0]']     \n",
      " agePooling2D)                                                                                    \n",
      "                                                                                                  \n",
      " block5c_se_reshape (Reshape)   (None, 1, 1, 720)    0           ['block5c_se_squeeze[0][0]']     \n",
      "                                                                                                  \n",
      " block5c_se_reduce (Conv2D)     (None, 1, 1, 30)     21630       ['block5c_se_reshape[0][0]']     \n",
      "                                                                                                  \n",
      " block5c_se_expand (Conv2D)     (None, 1, 1, 720)    22320       ['block5c_se_reduce[0][0]']      \n",
      "                                                                                                  \n",
      " block5c_se_excite (Multiply)   (None, 13, 10, 720)  0           ['block5c_activation[0][0]',     \n",
      "                                                                  'block5c_se_expand[0][0]']      \n",
      "                                                                                                  \n",
      " block5c_project_conv (Conv2D)  (None, 13, 10, 120)  86400       ['block5c_se_excite[0][0]']      \n",
      "                                                                                                  \n",
      " block5c_project_bn (BatchNorma  (None, 13, 10, 120)  480        ['block5c_project_conv[0][0]']   \n",
      " lization)                                                                                        \n",
      "                                                                                                  \n",
      " block5c_drop (Dropout)         (None, 13, 10, 120)  0           ['block5c_project_bn[0][0]']     \n",
      "                                                                                                  \n",
      " block5c_add (Add)              (None, 13, 10, 120)  0           ['block5c_drop[0][0]',           \n",
      "                                                                  'block5b_add[0][0]']            \n",
      "                                                                                                  \n",
      " block5d_expand_conv (Conv2D)   (None, 13, 10, 720)  86400       ['block5c_add[0][0]']            \n",
      "                                                                                                  \n",
      " block5d_expand_bn (BatchNormal  (None, 13, 10, 720)  2880       ['block5d_expand_conv[0][0]']    \n",
      " ization)                                                                                         \n",
      "                                                                                                  \n",
      " block5d_expand_activation (Act  (None, 13, 10, 720)  0          ['block5d_expand_bn[0][0]']      \n",
      " ivation)                                                                                         \n",
      "                                                                                                  \n",
      " block5d_dwconv (DepthwiseConv2  (None, 13, 10, 720)  18000      ['block5d_expand_activation[0][0]\n",
      " D)                                                              ']                               \n",
      "                                                                                                  \n",
      " block5d_bn (BatchNormalization  (None, 13, 10, 720)  2880       ['block5d_dwconv[0][0]']         \n",
      " )                                                                                                \n",
      "                                                                                                  \n",
      " block5d_activation (Activation  (None, 13, 10, 720)  0          ['block5d_bn[0][0]']             \n",
      " )                                                                                                \n",
      "                                                                                                  \n",
      " block5d_se_squeeze (GlobalAver  (None, 720)         0           ['block5d_activation[0][0]']     \n",
      " agePooling2D)                                                                                    \n",
      "                                                                                                  \n",
      " block5d_se_reshape (Reshape)   (None, 1, 1, 720)    0           ['block5d_se_squeeze[0][0]']     \n",
      "                                                                                                  \n",
      " block5d_se_reduce (Conv2D)     (None, 1, 1, 30)     21630       ['block5d_se_reshape[0][0]']     \n",
      "                                                                                                  \n",
      " block5d_se_expand (Conv2D)     (None, 1, 1, 720)    22320       ['block5d_se_reduce[0][0]']      \n",
      "                                                                                                  \n",
      " block5d_se_excite (Multiply)   (None, 13, 10, 720)  0           ['block5d_activation[0][0]',     \n",
      "                                                                  'block5d_se_expand[0][0]']      \n",
      "                                                                                                  \n",
      " block5d_project_conv (Conv2D)  (None, 13, 10, 120)  86400       ['block5d_se_excite[0][0]']      \n",
      "                                                                                                  \n",
      " block5d_project_bn (BatchNorma  (None, 13, 10, 120)  480        ['block5d_project_conv[0][0]']   \n",
      " lization)                                                                                        \n",
      "                                                                                                  \n",
      " block5d_drop (Dropout)         (None, 13, 10, 120)  0           ['block5d_project_bn[0][0]']     \n",
      "                                                                                                  \n",
      " block5d_add (Add)              (None, 13, 10, 120)  0           ['block5d_drop[0][0]',           \n",
      "                                                                  'block5c_add[0][0]']            \n",
      "                                                                                                  \n",
      " block6a_expand_conv (Conv2D)   (None, 13, 10, 720)  86400       ['block5d_add[0][0]']            \n",
      "                                                                                                  \n",
      " block6a_expand_bn (BatchNormal  (None, 13, 10, 720)  2880       ['block6a_expand_conv[0][0]']    \n",
      " ization)                                                                                         \n",
      "                                                                                                  \n",
      " block6a_expand_activation (Act  (None, 13, 10, 720)  0          ['block6a_expand_bn[0][0]']      \n",
      " ivation)                                                                                         \n",
      "                                                                                                  \n",
      " block6a_dwconv_pad (ZeroPaddin  (None, 17, 13, 720)  0          ['block6a_expand_activation[0][0]\n",
      " g2D)                                                            ']                               \n",
      "                                                                                                  \n",
      " block6a_dwconv (DepthwiseConv2  (None, 7, 5, 720)   18000       ['block6a_dwconv_pad[0][0]']     \n",
      " D)                                                                                               \n",
      "                                                                                                  \n",
      " block6a_bn (BatchNormalization  (None, 7, 5, 720)   2880        ['block6a_dwconv[0][0]']         \n",
      " )                                                                                                \n",
      "                                                                                                  \n",
      " block6a_activation (Activation  (None, 7, 5, 720)   0           ['block6a_bn[0][0]']             \n",
      " )                                                                                                \n",
      "                                                                                                  \n",
      " block6a_se_squeeze (GlobalAver  (None, 720)         0           ['block6a_activation[0][0]']     \n",
      " agePooling2D)                                                                                    \n",
      "                                                                                                  \n",
      " block6a_se_reshape (Reshape)   (None, 1, 1, 720)    0           ['block6a_se_squeeze[0][0]']     \n",
      "                                                                                                  \n",
      " block6a_se_reduce (Conv2D)     (None, 1, 1, 30)     21630       ['block6a_se_reshape[0][0]']     \n",
      "                                                                                                  \n",
      " block6a_se_expand (Conv2D)     (None, 1, 1, 720)    22320       ['block6a_se_reduce[0][0]']      \n",
      "                                                                                                  \n",
      " block6a_se_excite (Multiply)   (None, 7, 5, 720)    0           ['block6a_activation[0][0]',     \n",
      "                                                                  'block6a_se_expand[0][0]']      \n",
      "                                                                                                  \n",
      " block6a_project_conv (Conv2D)  (None, 7, 5, 208)    149760      ['block6a_se_excite[0][0]']      \n",
      "                                                                                                  \n",
      " block6a_project_bn (BatchNorma  (None, 7, 5, 208)   832         ['block6a_project_conv[0][0]']   \n",
      " lization)                                                                                        \n",
      "                                                                                                  \n",
      " block6b_expand_conv (Conv2D)   (None, 7, 5, 1248)   259584      ['block6a_project_bn[0][0]']     \n",
      "                                                                                                  \n",
      " block6b_expand_bn (BatchNormal  (None, 7, 5, 1248)  4992        ['block6b_expand_conv[0][0]']    \n",
      " ization)                                                                                         \n",
      "                                                                                                  \n",
      " block6b_expand_activation (Act  (None, 7, 5, 1248)  0           ['block6b_expand_bn[0][0]']      \n",
      " ivation)                                                                                         \n",
      "                                                                                                  \n",
      " block6b_dwconv (DepthwiseConv2  (None, 7, 5, 1248)  31200       ['block6b_expand_activation[0][0]\n",
      " D)                                                              ']                               \n",
      "                                                                                                  \n",
      " block6b_bn (BatchNormalization  (None, 7, 5, 1248)  4992        ['block6b_dwconv[0][0]']         \n",
      " )                                                                                                \n",
      "                                                                                                  \n",
      " block6b_activation (Activation  (None, 7, 5, 1248)  0           ['block6b_bn[0][0]']             \n",
      " )                                                                                                \n",
      "                                                                                                  \n",
      " block6b_se_squeeze (GlobalAver  (None, 1248)        0           ['block6b_activation[0][0]']     \n",
      " agePooling2D)                                                                                    \n",
      "                                                                                                  \n",
      " block6b_se_reshape (Reshape)   (None, 1, 1, 1248)   0           ['block6b_se_squeeze[0][0]']     \n",
      "                                                                                                  \n",
      " block6b_se_reduce (Conv2D)     (None, 1, 1, 52)     64948       ['block6b_se_reshape[0][0]']     \n",
      "                                                                                                  \n",
      " block6b_se_expand (Conv2D)     (None, 1, 1, 1248)   66144       ['block6b_se_reduce[0][0]']      \n",
      "                                                                                                  \n",
      " block6b_se_excite (Multiply)   (None, 7, 5, 1248)   0           ['block6b_activation[0][0]',     \n",
      "                                                                  'block6b_se_expand[0][0]']      \n",
      "                                                                                                  \n",
      " block6b_project_conv (Conv2D)  (None, 7, 5, 208)    259584      ['block6b_se_excite[0][0]']      \n",
      "                                                                                                  \n",
      " block6b_project_bn (BatchNorma  (None, 7, 5, 208)   832         ['block6b_project_conv[0][0]']   \n",
      " lization)                                                                                        \n",
      "                                                                                                  \n",
      " block6b_drop (Dropout)         (None, 7, 5, 208)    0           ['block6b_project_bn[0][0]']     \n",
      "                                                                                                  \n",
      " block6b_add (Add)              (None, 7, 5, 208)    0           ['block6b_drop[0][0]',           \n",
      "                                                                  'block6a_project_bn[0][0]']     \n",
      "                                                                                                  \n",
      " block6c_expand_conv (Conv2D)   (None, 7, 5, 1248)   259584      ['block6b_add[0][0]']            \n",
      "                                                                                                  \n",
      " block6c_expand_bn (BatchNormal  (None, 7, 5, 1248)  4992        ['block6c_expand_conv[0][0]']    \n",
      " ization)                                                                                         \n",
      "                                                                                                  \n",
      " block6c_expand_activation (Act  (None, 7, 5, 1248)  0           ['block6c_expand_bn[0][0]']      \n",
      " ivation)                                                                                         \n",
      "                                                                                                  \n",
      " block6c_dwconv (DepthwiseConv2  (None, 7, 5, 1248)  31200       ['block6c_expand_activation[0][0]\n",
      " D)                                                              ']                               \n",
      "                                                                                                  \n",
      " block6c_bn (BatchNormalization  (None, 7, 5, 1248)  4992        ['block6c_dwconv[0][0]']         \n",
      " )                                                                                                \n",
      "                                                                                                  \n",
      " block6c_activation (Activation  (None, 7, 5, 1248)  0           ['block6c_bn[0][0]']             \n",
      " )                                                                                                \n",
      "                                                                                                  \n",
      " block6c_se_squeeze (GlobalAver  (None, 1248)        0           ['block6c_activation[0][0]']     \n",
      " agePooling2D)                                                                                    \n",
      "                                                                                                  \n",
      " block6c_se_reshape (Reshape)   (None, 1, 1, 1248)   0           ['block6c_se_squeeze[0][0]']     \n",
      "                                                                                                  \n",
      " block6c_se_reduce (Conv2D)     (None, 1, 1, 52)     64948       ['block6c_se_reshape[0][0]']     \n",
      "                                                                                                  \n",
      " block6c_se_expand (Conv2D)     (None, 1, 1, 1248)   66144       ['block6c_se_reduce[0][0]']      \n",
      "                                                                                                  \n",
      " block6c_se_excite (Multiply)   (None, 7, 5, 1248)   0           ['block6c_activation[0][0]',     \n",
      "                                                                  'block6c_se_expand[0][0]']      \n",
      "                                                                                                  \n",
      " block6c_project_conv (Conv2D)  (None, 7, 5, 208)    259584      ['block6c_se_excite[0][0]']      \n",
      "                                                                                                  \n",
      " block6c_project_bn (BatchNorma  (None, 7, 5, 208)   832         ['block6c_project_conv[0][0]']   \n",
      " lization)                                                                                        \n",
      "                                                                                                  \n",
      " block6c_drop (Dropout)         (None, 7, 5, 208)    0           ['block6c_project_bn[0][0]']     \n",
      "                                                                                                  \n",
      " block6c_add (Add)              (None, 7, 5, 208)    0           ['block6c_drop[0][0]',           \n",
      "                                                                  'block6b_add[0][0]']            \n",
      "                                                                                                  \n",
      " block6d_expand_conv (Conv2D)   (None, 7, 5, 1248)   259584      ['block6c_add[0][0]']            \n",
      "                                                                                                  \n",
      " block6d_expand_bn (BatchNormal  (None, 7, 5, 1248)  4992        ['block6d_expand_conv[0][0]']    \n",
      " ization)                                                                                         \n",
      "                                                                                                  \n",
      " block6d_expand_activation (Act  (None, 7, 5, 1248)  0           ['block6d_expand_bn[0][0]']      \n",
      " ivation)                                                                                         \n",
      "                                                                                                  \n",
      " block6d_dwconv (DepthwiseConv2  (None, 7, 5, 1248)  31200       ['block6d_expand_activation[0][0]\n",
      " D)                                                              ']                               \n",
      "                                                                                                  \n",
      " block6d_bn (BatchNormalization  (None, 7, 5, 1248)  4992        ['block6d_dwconv[0][0]']         \n",
      " )                                                                                                \n",
      "                                                                                                  \n",
      " block6d_activation (Activation  (None, 7, 5, 1248)  0           ['block6d_bn[0][0]']             \n",
      " )                                                                                                \n",
      "                                                                                                  \n",
      " block6d_se_squeeze (GlobalAver  (None, 1248)        0           ['block6d_activation[0][0]']     \n",
      " agePooling2D)                                                                                    \n",
      "                                                                                                  \n",
      " block6d_se_reshape (Reshape)   (None, 1, 1, 1248)   0           ['block6d_se_squeeze[0][0]']     \n",
      "                                                                                                  \n",
      " block6d_se_reduce (Conv2D)     (None, 1, 1, 52)     64948       ['block6d_se_reshape[0][0]']     \n",
      "                                                                                                  \n",
      " block6d_se_expand (Conv2D)     (None, 1, 1, 1248)   66144       ['block6d_se_reduce[0][0]']      \n",
      "                                                                                                  \n",
      " block6d_se_excite (Multiply)   (None, 7, 5, 1248)   0           ['block6d_activation[0][0]',     \n",
      "                                                                  'block6d_se_expand[0][0]']      \n",
      "                                                                                                  \n",
      " block6d_project_conv (Conv2D)  (None, 7, 5, 208)    259584      ['block6d_se_excite[0][0]']      \n",
      "                                                                                                  \n",
      " block6d_project_bn (BatchNorma  (None, 7, 5, 208)   832         ['block6d_project_conv[0][0]']   \n",
      " lization)                                                                                        \n",
      "                                                                                                  \n",
      " block6d_drop (Dropout)         (None, 7, 5, 208)    0           ['block6d_project_bn[0][0]']     \n",
      "                                                                                                  \n",
      " block6d_add (Add)              (None, 7, 5, 208)    0           ['block6d_drop[0][0]',           \n",
      "                                                                  'block6c_add[0][0]']            \n",
      "                                                                                                  \n",
      " block6e_expand_conv (Conv2D)   (None, 7, 5, 1248)   259584      ['block6d_add[0][0]']            \n",
      "                                                                                                  \n",
      " block6e_expand_bn (BatchNormal  (None, 7, 5, 1248)  4992        ['block6e_expand_conv[0][0]']    \n",
      " ization)                                                                                         \n",
      "                                                                                                  \n",
      " block6e_expand_activation (Act  (None, 7, 5, 1248)  0           ['block6e_expand_bn[0][0]']      \n",
      " ivation)                                                                                         \n",
      "                                                                                                  \n",
      " block6e_dwconv (DepthwiseConv2  (None, 7, 5, 1248)  31200       ['block6e_expand_activation[0][0]\n",
      " D)                                                              ']                               \n",
      "                                                                                                  \n",
      " block6e_bn (BatchNormalization  (None, 7, 5, 1248)  4992        ['block6e_dwconv[0][0]']         \n",
      " )                                                                                                \n",
      "                                                                                                  \n",
      " block6e_activation (Activation  (None, 7, 5, 1248)  0           ['block6e_bn[0][0]']             \n",
      " )                                                                                                \n",
      "                                                                                                  \n",
      " block6e_se_squeeze (GlobalAver  (None, 1248)        0           ['block6e_activation[0][0]']     \n",
      " agePooling2D)                                                                                    \n",
      "                                                                                                  \n",
      " block6e_se_reshape (Reshape)   (None, 1, 1, 1248)   0           ['block6e_se_squeeze[0][0]']     \n",
      "                                                                                                  \n",
      " block6e_se_reduce (Conv2D)     (None, 1, 1, 52)     64948       ['block6e_se_reshape[0][0]']     \n",
      "                                                                                                  \n",
      " block6e_se_expand (Conv2D)     (None, 1, 1, 1248)   66144       ['block6e_se_reduce[0][0]']      \n",
      "                                                                                                  \n",
      " block6e_se_excite (Multiply)   (None, 7, 5, 1248)   0           ['block6e_activation[0][0]',     \n",
      "                                                                  'block6e_se_expand[0][0]']      \n",
      "                                                                                                  \n",
      " block6e_project_conv (Conv2D)  (None, 7, 5, 208)    259584      ['block6e_se_excite[0][0]']      \n",
      "                                                                                                  \n",
      " block6e_project_bn (BatchNorma  (None, 7, 5, 208)   832         ['block6e_project_conv[0][0]']   \n",
      " lization)                                                                                        \n",
      "                                                                                                  \n",
      " block6e_drop (Dropout)         (None, 7, 5, 208)    0           ['block6e_project_bn[0][0]']     \n",
      "                                                                                                  \n",
      " block6e_add (Add)              (None, 7, 5, 208)    0           ['block6e_drop[0][0]',           \n",
      "                                                                  'block6d_add[0][0]']            \n",
      "                                                                                                  \n",
      " block7a_expand_conv (Conv2D)   (None, 7, 5, 1248)   259584      ['block6e_add[0][0]']            \n",
      "                                                                                                  \n",
      " block7a_expand_bn (BatchNormal  (None, 7, 5, 1248)  4992        ['block7a_expand_conv[0][0]']    \n",
      " ization)                                                                                         \n",
      "                                                                                                  \n",
      " block7a_expand_activation (Act  (None, 7, 5, 1248)  0           ['block7a_expand_bn[0][0]']      \n",
      " ivation)                                                                                         \n",
      "                                                                                                  \n",
      " block7a_dwconv (DepthwiseConv2  (None, 7, 5, 1248)  11232       ['block7a_expand_activation[0][0]\n",
      " D)                                                              ']                               \n",
      "                                                                                                  \n",
      " block7a_bn (BatchNormalization  (None, 7, 5, 1248)  4992        ['block7a_dwconv[0][0]']         \n",
      " )                                                                                                \n",
      "                                                                                                  \n",
      " block7a_activation (Activation  (None, 7, 5, 1248)  0           ['block7a_bn[0][0]']             \n",
      " )                                                                                                \n",
      "                                                                                                  \n",
      " block7a_se_squeeze (GlobalAver  (None, 1248)        0           ['block7a_activation[0][0]']     \n",
      " agePooling2D)                                                                                    \n",
      "                                                                                                  \n",
      " block7a_se_reshape (Reshape)   (None, 1, 1, 1248)   0           ['block7a_se_squeeze[0][0]']     \n",
      "                                                                                                  \n",
      " block7a_se_reduce (Conv2D)     (None, 1, 1, 52)     64948       ['block7a_se_reshape[0][0]']     \n",
      "                                                                                                  \n",
      " block7a_se_expand (Conv2D)     (None, 1, 1, 1248)   66144       ['block7a_se_reduce[0][0]']      \n",
      "                                                                                                  \n",
      " block7a_se_excite (Multiply)   (None, 7, 5, 1248)   0           ['block7a_activation[0][0]',     \n",
      "                                                                  'block7a_se_expand[0][0]']      \n",
      "                                                                                                  \n",
      " block7a_project_conv (Conv2D)  (None, 7, 5, 352)    439296      ['block7a_se_excite[0][0]']      \n",
      "                                                                                                  \n",
      " block7a_project_bn (BatchNorma  (None, 7, 5, 352)   1408        ['block7a_project_conv[0][0]']   \n",
      " lization)                                                                                        \n",
      "                                                                                                  \n",
      " block7b_expand_conv (Conv2D)   (None, 7, 5, 2112)   743424      ['block7a_project_bn[0][0]']     \n",
      "                                                                                                  \n",
      " block7b_expand_bn (BatchNormal  (None, 7, 5, 2112)  8448        ['block7b_expand_conv[0][0]']    \n",
      " ization)                                                                                         \n",
      "                                                                                                  \n",
      " block7b_expand_activation (Act  (None, 7, 5, 2112)  0           ['block7b_expand_bn[0][0]']      \n",
      " ivation)                                                                                         \n",
      "                                                                                                  \n",
      " block7b_dwconv (DepthwiseConv2  (None, 7, 5, 2112)  19008       ['block7b_expand_activation[0][0]\n",
      " D)                                                              ']                               \n",
      "                                                                                                  \n",
      " block7b_bn (BatchNormalization  (None, 7, 5, 2112)  8448        ['block7b_dwconv[0][0]']         \n",
      " )                                                                                                \n",
      "                                                                                                  \n",
      " block7b_activation (Activation  (None, 7, 5, 2112)  0           ['block7b_bn[0][0]']             \n",
      " )                                                                                                \n",
      "                                                                                                  \n",
      " block7b_se_squeeze (GlobalAver  (None, 2112)        0           ['block7b_activation[0][0]']     \n",
      " agePooling2D)                                                                                    \n",
      "                                                                                                  \n",
      " block7b_se_reshape (Reshape)   (None, 1, 1, 2112)   0           ['block7b_se_squeeze[0][0]']     \n",
      "                                                                                                  \n",
      " block7b_se_reduce (Conv2D)     (None, 1, 1, 88)     185944      ['block7b_se_reshape[0][0]']     \n",
      "                                                                                                  \n",
      " block7b_se_expand (Conv2D)     (None, 1, 1, 2112)   187968      ['block7b_se_reduce[0][0]']      \n",
      "                                                                                                  \n",
      " block7b_se_excite (Multiply)   (None, 7, 5, 2112)   0           ['block7b_activation[0][0]',     \n",
      "                                                                  'block7b_se_expand[0][0]']      \n",
      "                                                                                                  \n",
      " block7b_project_conv (Conv2D)  (None, 7, 5, 352)    743424      ['block7b_se_excite[0][0]']      \n",
      "                                                                                                  \n",
      " block7b_project_bn (BatchNorma  (None, 7, 5, 352)   1408        ['block7b_project_conv[0][0]']   \n",
      " lization)                                                                                        \n",
      "                                                                                                  \n",
      " block7b_drop (Dropout)         (None, 7, 5, 352)    0           ['block7b_project_bn[0][0]']     \n",
      "                                                                                                  \n",
      " block7b_add (Add)              (None, 7, 5, 352)    0           ['block7b_drop[0][0]',           \n",
      "                                                                  'block7a_project_bn[0][0]']     \n",
      "                                                                                                  \n",
      " top_conv (Conv2D)              (None, 7, 5, 1408)   495616      ['block7b_add[0][0]']            \n",
      "                                                                                                  \n",
      " top_bn (BatchNormalization)    (None, 7, 5, 1408)   5632        ['top_conv[0][0]']               \n",
      "                                                                                                  \n",
      " top_activation (Activation)    (None, 7, 5, 1408)   0           ['top_bn[0][0]']                 \n",
      "                                                                                                  \n",
      " max_pool (GlobalMaxPooling2D)  (None, 1408)         0           ['top_activation[0][0]']         \n",
      "                                                                                                  \n",
      " flatten_41 (Flatten)           (None, 1408)         0           ['max_pool[0][0]']               \n",
      "                                                                                                  \n",
      " dense_89 (Dense)               (None, 500)          704500      ['flatten_41[0][0]']             \n",
      "                                                                                                  \n",
      " dropout_16 (Dropout)           (None, 500)          0           ['dense_89[0][0]']               \n",
      "                                                                                                  \n",
      " dense_90 (Dense)               (None, 5)            2505        ['dropout_16[0][0]']             \n",
      "                                                                                                  \n",
      "==================================================================================================\n",
      "Total params: 8,475,574\n",
      "Trainable params: 707,005\n",
      "Non-trainable params: 7,768,569\n",
      "__________________________________________________________________________________________________\n"
…
